{'dataset': 'cifar10', 'dataroot': '../../dataset', 'workers': 2, 'batchSize': 64, 'imageSize': 64, 'nz': 100, 'ngf': 64, 'ndf': 64, 'niter': 100, 'lr': 0.0002, 'beta1': 0.5, 'cuda': True, 'dry_run': False, 'ngpu': 1, 'netG': '', 'netD': '', 'manualSeed': None, 'classes': None, 'outf': 'result_plain'}
Random Seed:  6253
Generator(
  (main): Sequential(
    (0): ConvTranspose2d(100, 512, kernel_size=(4, 4), stride=(1, 1), bias=False)
    (1): BatchNorm2d(512, eps=1e-05, momentum=0.1, affine=True, track_running_stats=True)
    (2): ReLU(inplace=True)
    (3): ConvTranspose2d(512, 256, kernel_size=(4, 4), stride=(2, 2), padding=(1, 1), bias=False)
    (4): BatchNorm2d(256, eps=1e-05, momentum=0.1, affine=True, track_running_stats=True)
    (5): ReLU(inplace=True)
    (6): ConvTranspose2d(256, 128, kernel_size=(4, 4), stride=(2, 2), padding=(1, 1), bias=False)
    (7): BatchNorm2d(128, eps=1e-05, momentum=0.1, affine=True, track_running_stats=True)
    (8): ReLU(inplace=True)
    (9): ConvTranspose2d(128, 64, kernel_size=(4, 4), stride=(2, 2), padding=(1, 1), bias=False)
    (10): BatchNorm2d(64, eps=1e-05, momentum=0.1, affine=True, track_running_stats=True)
    (11): ReLU(inplace=True)
    (12): ConvTranspose2d(64, 3, kernel_size=(4, 4), stride=(2, 2), padding=(1, 1), bias=False)
    (13): Tanh()
  )
)
Discriminator(
  (main): Sequential(
    (0): Conv2d(3, 64, kernel_size=(4, 4), stride=(2, 2), padding=(1, 1), bias=False)
    (1): LeakyReLU(negative_slope=0.2, inplace=True)
    (2): Conv2d(64, 128, kernel_size=(4, 4), stride=(2, 2), padding=(1, 1), bias=False)
    (3): BatchNorm2d(128, eps=1e-05, momentum=0.1, affine=True, track_running_stats=True)
    (4): LeakyReLU(negative_slope=0.2, inplace=True)
    (5): Conv2d(128, 256, kernel_size=(4, 4), stride=(2, 2), padding=(1, 1), bias=False)
    (6): BatchNorm2d(256, eps=1e-05, momentum=0.1, affine=True, track_running_stats=True)
    (7): LeakyReLU(negative_slope=0.2, inplace=True)
    (8): Conv2d(256, 512, kernel_size=(4, 4), stride=(2, 2), padding=(1, 1), bias=False)
    (9): BatchNorm2d(512, eps=1e-05, momentum=0.1, affine=True, track_running_stats=True)
    (10): LeakyReLU(negative_slope=0.2, inplace=True)
    (11): Conv2d(512, 1, kernel_size=(4, 4), stride=(1, 1), bias=False)
    (12): Sigmoid()
  )
)
[0/100][781/782] Loss_D: 0.8478 Loss_G: 2.5264 D(x): 0.4941 D(G(z)): 0.0477 / 0.1183, FID:232.5245
[1/100][781/782] Loss_D: 0.3456 Loss_G: 3.4774 D(x): 0.7681 D(G(z)): 0.0310 / 0.0470, FID:209.7174
[2/100][781/782] Loss_D: 2.6275 Loss_G: 0.1290 D(x): 0.1257 D(G(z)): 0.0063 / 0.8848, FID:161.1813
[3/100][781/782] Loss_D: 0.2045 Loss_G: 4.0516 D(x): 0.8599 D(G(z)): 0.0400 / 0.0237, FID:123.1894
…
